bio/checkpoints/linear/0311_194527/best_masking_loss.pth (torch_old, 8966 bytes, 2 tensors)

weight f4 [7, 300]
000000 03 a2 c4 bd 40 73 98 bd 80 e4 31 be 8c 85 df 3d
       -0.09601214 -0.07443857 -0.17372322 0.10914144
000010 57 db 6e 3d 4e b1 bd bd ba 74 83 3c 05 7b cb 3d
       0.058314648 -0.09262334 0.01604687 0.099355735
000020 d2 01 d9 3d 91 da 9f bd a0 8a 8c bd de e0 6a 3e
       0.1059605 -0.0780536 -0.06862378 0.22937343
000030 33 67 04 3d 09 d8 d2 bd 98 60 aa 3c b9 04 e0 bd
       0.03232498 -0.10295112 0.020798013 -0.10938401
000040 eb b1 2c 3b f8 c7 98 3d 96 23 be 3d 99 8f 07 be
       0.0026351165 0.07460016 0.09284131 -0.13238372
000050 da fb 9e 3d 0a 0b f0 3c 06 4c 31 bd b3 01 a7 3d
       0.077628806 0.029302139 -0.043285392 0.08154621
000060 52 3f 14 bd 00 a8 28 3d d1 d3 24 bd c1 a3 78 bc
       -0.0361932 0.041175842 -0.040241066 -0.015175761
000070 3e 6b 9c 3d 61 d1 02 3e 8a 34 d6 ba 20 c9 ea bd
       0.07637642 0.12775184 -0.0016342562 -0.11464143
000080 2a 7c 80 3d 09 54 4b 3e 2a db d1 3c 6f e1 73 3e
       0.062736824 0.19856276 0.0256172 0.23816465
000090 97 3d f1 3d eb d9 80 3b 5d 43 ab bd a5 ee 6c bd
       0.117793255 0.003932228 -0.08362458 -0.057844777
0000a0 74 4a af 3d 35 87 01 be 55 bf f9 3d d3 3e 64 bc
       0.08559123 -0.12649234 0.12194697 -0.013930994
0000b0 cb 34 02 3e 66 d8 96 bd d3 81 26 3e b4 32 66 bd
       0.12715451 -0.073654935 0.16260462 -0.056200698
0000c0 d5 62 19 be 66 27 03 3e 03 77 40 3e 18 b3 06 3e
       -0.14979108 0.12807998 0.187954 0.13154256
0000d0 2f d7 8f 3c ac e7 33 bb c2 7d f7 3c 54 5b 9b 3d
       0.017558662 -0.002745132 0.030211333 0.07585779
0000e0 99 65 1d be 2d 0b 63 3c 3e 15 e6 3b e3 d9 93 be
       -0.15370788 0.013857645 0.0070215752 -0.28877172
0000f0 3a c5 1a be 27 f6 f4 bd f9 01 a0 bd 89 7d 74 bd
       -0.15114298 -0.11961012 -0.07812876 -0.059690032
000100 a8 63 9c 3d 49 d8 cd 3c b8 dd 50 3d 6c 73 9b bc
       0.076361954 0.025127547 0.050992697 -0.018975936
000110 3b ac 17 3e 55 fb ae 3d 43 06 0d 3e d3 b2 36 3e
       0.14811794 0.085440315 0.1377192 0.17841654
000120 c2 c1 d2 3d 05 68 b2 3d 45 41 99 bd 1c dd 80 3d
       0.102908626 0.087112464 -0.07483152 0.06292173
000130 8b ea 9a 3d 9d cb 55 be a3 99 ba 3c 1a c3 12 be
       0.07564267 -0.20878454 0.022778338 -0.14332238
000140 da dc 09 be ce 72 4f bd 9a 97 2c 3e c7 13 17 bd
       -0.13463154 -0.050646596 0.16854706 -0.036884096
000150 75 76 a7 3d 4f 36 00 3e 72 3b 3f 3e 9a 8f 92 3c
       0.08176891 0.12520717 0.1867502 0.01789074
000160 cb 2d 13 3e 45 e4 e8 3c 58 56 53 be bc bb 2e 3d
       0.14372937 0.02842916 -0.20638406 0.042659506
000170 8a 7c 8d bd b2 d1 ab bb 4a 15 f7 bb 95 92 1a be
       -0.069085196 -0.0052435035 -0.0075403797 -0.15094979
000180 45 ad 74 bd ef 54 b1 3d 71 a4 ab 3a df 46 bb bd
       -0.059735555 0.08658778 0.0013095272 -0.09144377
000190 38 05 3a be 3c bc 01 3e 31 e5 de bd 1b b9 df bc
       -0.18166053 0.12669462 -0.108835585 -0.027309945
0001a0 f0 54 0f be e9 8d f0 bc 12 e4 39 bd fb dc 60 3c
       -0.13997245 -0.029364543 -0.04538352 0.013724561
0001b0 79 e6 d5 bc 3f de cb bd 65 31 4c be 73 bd b0 3d
       -0.026110874 -0.099544995 -0.19940718 0.086298846
0001c0 42 d5 6e 3d b2 1d e1 bd 67 db 33 3e d1 6b 8e 3c
       0.058308847 -0.10991992 0.17564164 0.017385395
0001d0 d7 48 ae 3d 99 ea 2f 3e be bc 41 be 3c 83 71 3d
       0.08509987 0.17179336 -0.18919656 0.058963045
0001e0 26 9c 6c be 85 d0 9f 3d e7 10 47 bd 6a e3 84 be
       -0.23106441 0.07803444 -0.048600104 -0.25954753
0001f0 54 9b 84 bd d7 cf 10 3c 9b ef 75 bd 31 7f 86 3e
       -0.06474939 0.008838615 -0.06004296 0.26268914
000200 8e 19 2c 3e ee 74 59 bd c7 8e 68 3e 08 7f 83 bd
       0.16806623 -0.05309003 0.22710715 -0.06420714
000210 9a 2a 77 3d f7 a6 9c ba 3c 5e 9c 3c c6 a7 ce bd
       0.060343362 -0.0011951615 0.019087903 -0.10090594
000220 27 4e fc 3d e1 17 0b 3e ad e8 5a bd 75 33 42 3e
       0.12319594 0.13583328 -0.053444553 0.18964942
000230 81 43 d5 3c 30 9b 7a 3d 19 c9 b3 3c 32 e5 9d 3d
       0.026033165 0.061183155 0.021946477 0.07709731
000240 e0 70 b3 3d 96 a3 b0 bd e0 4f c8 3d af bc 57 3b
       0.087617636 -0.086249515 0.0978086 0.003291886
000250 26 71 c8 3d 02 a9 71 3d c1 28 10 bd 8d d2 50 bc
       0.09787206 0.05899907 -0.035195116 -0.012745512
000260 87 f6 c3 3d d2 c0 60 be d6 01 e6 3c 54 30 0d bc
       0.09568506 -0.21948555 0.028077047 -0.008617479
000270 69 4e 8b 3e 6b 21 f3 3d c1 17 46 bd 52 4d 21 be
       0.2720826 0.11871608 -0.048362497 -0.15752152
000280 07 ac 05 3d b9 76 c8 bc bb a0 7c 3d 82 14 f3 3d
       0.03263476 -0.024470674 0.061676722 0.11869146
000290 a8 a6 0d 3d e1 f6 82 3b 6e cd 6b 3e e4 b0 36 be
       0.034582764 0.0039967154 0.23027584 -0.17840916
0002a0 5f af 60 bd cc 6e 36 bd 62 be 81 bd 84 84 84 bd
       -0.054854747 -0.044539258 -0.06335141 -0.06470588
0002b0 8d 26 28 3e e1 33 89 bb 3f 8b 25 bd ef 1f 83 3d
       0.16420956 -0.0041870927 -0.040416 0.06402575
0002c0 38 c0 2c be ef 2e 31 bd 6a f6 03 bc ca 6f ff bd
       -0.168702 -0.04325765 -0.008054355 -0.12472494
0002d0 e2 8d 33 3d 8c d9 bc 3d 1a af d9 3c a1 8c e8 3d
       0.043836482 0.09221181 0.026572753 0.11354948
0002e0 99 b6 a1 bd 71 c2 23 bd ef de 78 bd 0f f7 0b be
       -0.07896156 -0.039980356 -0.06075948 -0.13668464
0002f0 8b 4e eb 3a 0c eb b3 3d e3 05 27 bd 4d 6b 8e bd
       0.0017952485 0.08785066 -0.0407771 -0.0695406
000300 63 e8 fc bd 87 b1 4a bd dc 9b 1c be db 8c 3b bd
       -0.12349012 -0.04948571 -0.1529383 -0.045788627
000310 63 89 2e 3d e7 71 53 3e 06 1d 44 bd 4d f5 37 3d
       0.04261149 0.20648919 -0.04787924 0.04491167
000320 07 66 9f 3d 9a 1c e7 3d 0d 64 90 3d 30 a2 89 bd
       0.07783132 0.11284752 0.07050333 -0.06720388
000330 8a 29 9f bd 4f 65 c7 3d 56 62 d5 3c 23 1c e7 3d
       -0.07771595 0.0973612 0.026047867 0.112846635
000340 15 f5 04 be b1 ae 47 be 8c 53 9d bd 1e 8c 8e 3d
       -0.12984116 -0.19500233 -0.07681951 0.06960319
000350 81 98 03 bd 6c 25 d0 3d 2f 2a 47 3d 62 da 81 bc
       -0.03212786 0.10163388 0.048624214 -0.015851203
000360 07 39 d1 bd a5 d8 a0 3c 1b ec df 3d 06 bc b9 3d
       -0.10215955 0.019634554 0.109337054 0.09069066
000370 3d 98 83 bd 28 71 39 3d ba a6 68 bd 3d a3 f1 bc
       -0.064255215 0.04527393 -0.056799628 -0.029496783
000380 0f 23 94 bc e6 00 ef 3d 7e 56 05 be 7c 8f 2a be
       -0.018083123 0.11670093 -0.13021275 -0.16656297
000390 31 ab de bd 0b 1a ee bc c1 4a 4b 3b 46 cb be 3c
       -0.10872496 -0.029065153 0.0031019899 0.023290288
0003a0 f4 21 fe bd 0b c3 c7 bd 44 61 07 bd a1 34 01 3d
       -0.1240882 -0.09753998 -0.033051744 0.03154433
0003b0 b2 b3 e8 3d 09 fa 80 3d 66 88 d3 3d 18 5b 3d bd
       0.11362399 0.062976904 0.1032875 -0.046229452
0003c0 07 2d 39 bd e2 44 b6 3c 01 f2 70 3d 44 e5 37 be
       -0.045208957 0.022249643 0.058824543 -0.17958552
0003d0 ad 7f 02 bd f6 a5 24 bd 50 37 34 bd 01 54 bb bd
       -0.031860042 -0.040197335 -0.043998063 -0.09146882
0003e0 37 98 01 3e a2 65 b8 3d dc 1c aa 3d 8f b6 d5 bd
       0.12655722 0.0900376 0.08306286 -0.10435211
0003f0 d2 d6 75 3e 2c f7 f5 bd 2b 1c 2d 3e fe 42 0c 3e
       0.24007729 -0.12010035 0.16905276 0.1369743

bias f4 [7]
000000 2a 6d b0 bd ba 1e b6 bd b2 c4 c4 bd 0a b1 0d be
       -0.086145714 -0.088925794 -0.09607829 -0.13837066
000010 d7 af 1f bc 46 d4 b4 3c 7f 24 a4 bc
       -0.009746513 0.022073876 -0.020036934
